Mancala/Replay_dqn_state_dict.pt (torch, 42527 bytes, 6 tensors)

0.weight f4 [64, 14]
000000 b2 62 cd be 02 71 e2 be e9 2f 0a bf da 17 94 be
       -0.4011436 -0.44226843 -0.53979355 -0.28924447
000010 4a 08 e8 3e 28 d8 54 3e 79 66 4f bf 4e ea 78 be
       0.45318824 0.20785582 -0.81015736 -0.2430813
000020 15 12 e3 bd 41 21 06 3f ea c4 2f 3e d8 4a 03 3f
       -0.11087433 0.5239449 0.1716496 0.5128608
000030 eb f8 3d 3f 70 11 00 3e da 38 81 bf 75 a1 55 3f
       0.74207944 0.12506652 -1.0095475 0.8344949
000040 41 fa f8 3e 5b ff 1b 3e 88 44 97 be 51 d5 be 3f
       0.4862843 0.15234129 -0.29544473 1.4908849
000050 46 7d 9d be 17 03 15 bf a3 6e 93 be f9 4c 09 bf
       -0.3075964 -0.5820784 -0.28795347 -0.53633076
000060 09 30 28 3c a6 99 5d bf de d6 10 bf c2 33 39 3e
       0.010265359 -0.86562574 -0.5657786 0.1808615
000070 d0 fc 63 bf 0e ae 2b bf 15 54 1c 3c 58 47 f6 be
       -0.89057636 -0.6706246 0.009541531 -0.48101306
000080 d8 0b 2e bd 44 63 93 3d e9 f9 18 bd 7e 70 5c be
       -0.042491764 0.07196668 -0.037347708 -0.21527287
000090 ca 82 0c 3f 4a 42 d1 3e 83 8a e8 be b7 8f 9c 3f
       0.5488707 0.40870887 -0.45418176 1.2231358
0000a0 1a f6 17 3f 71 af f1 be 4a e9 62 3f e3 a4 d7 be
       0.59359896 -0.47204164 0.8863722 -0.42117986
0000b0 e1 5a 52 3f b1 b9 31 bf 1b 8a 8e bc ef ee 6b be
       0.8216992 -0.6942397 -0.017399838 -0.23040365
0000c0 9b 4f ad 3e 2d 2c f6 3e 6b 61 5a 3f b2 49 42 be
       0.33849797 0.48080578 0.853049 -0.18973425
0000d0 9c 94 ef 3e eb e2 fe be f7 49 c6 be fa fe 33 bf
       0.46793067 -0.497825 -0.38728306 -0.7031094
0000e0 f7 b8 b5 3e 19 19 d2 be 1c d5 7c 3e e4 f4 c0 3f
       0.3549268 -0.41034773 0.2469067 1.5074735
0000f0 fb bc 9c bf 70 a3 80 3f 56 a3 e6 bd b9 73 df be
       -1.2245172 1.0049877 -0.112616226 -0.43642977
000100 ea 6e ef 3d 65 b2 b4 3d b4 49 82 be cf c6 ab be
       0.11691077 0.088230886 -0.25446856 -0.33550116
000110 24 34 d5 3d 19 82 f9 3d ca ab 4b 3f 49 7d 69 3e
       0.10410336 0.12183017 0.79559004 0.22801699
000120 d1 5f 3c be 5a d6 ae 3d d3 15 24 3f 80 c9 07 bd
       -0.18395926 0.08536978 0.640958 -0.03315115
000130 9b b5 dd be dd 41 5d 3e 07 5c 33 bd b2 1a 42 3e
       -0.43302616 0.21607156 -0.043788936 0.18955496
000140 0d 7d 95 3e ed dd 33 3f 2b 15 dd 3e 78 7c 94 be
       0.2919697 0.70260507 0.43180212 -0.29001212
000150 29 dc 87 3e 72 65 b1 c0 1c 18 1c 3e 41 1a 7b bd
       0.26535156 -5.5436335 0.15243572 -0.061304335
000160 db 41 27 3e a0 c0 2b 3e 28 90 02 3e 01 32 21 3e
       0.16333716 0.167727 0.12750304 0.15741731
000170 8b 46 87 3e 4f 70 fc 3e 5f 98 1c be 1c 71 54 3e
       0.26421008 0.49304435 -0.152925 0.20746273
000180 06 f4 22 3e b2 34 10 3e 12 77 d6 3d 27 56 6b 3d
       0.159134 0.14082602 0.104719296 0.05745521
000190 2e a9 e6 bd db 09 52 3c 0e fe 38 bc e3 00 d6 3d
       -0.11262737 0.012819733 -0.01129104 0.10449388
0001a0 5f d1 ad bf 27 36 ba bc b6 a6 bc 3e 9b ff 46 3f
       -1.357952 -0.0227309 0.3684594 0.77733773
0001b0 25 4d 60 3e 2f 14 d8 3e 36 fc b1 3e 3d 85 a2 3f
       0.21904428 0.422029 0.34762734 1.2696911
0001c0 d3 83 04 3e b2 ed 63 3d 55 54 0e 3d 95 b4 07 bc
       0.12940912 0.055646606 0.034748394 -0.0082828
0001d0 b6 d4 2f be cb 32 2b bc 7d 81 84 bf 91 06 02 3e
       -0.17170987 -0.010449122 -1.0352017 0.12697817
0001e0 a6 40 8b be 91 0b 7f bf 98 d7 af 3e b4 51 90 3e
       -0.2719776 -0.99627024 0.34344172 0.28187335
0001f0 9c 9a a1 3e f7 71 86 3f f6 a8 9e 3e 96 3a 06 bd
       0.3156327 1.0503529 0.30988282 -0.032770716
000200 81 fe c0 be 02 dc 80 3e be 69 7c bd d1 b0 74 be
       -0.3769417 0.25167853 -0.06162428 -0.23895575
000210 62 0b 04 be 51 86 13 bf e8 84 96 3f b4 b4 43 c0
       -0.12894967 -0.57626826 1.175931 -3.0579042
000220 f4 ca b9 be d7 0d e3 3e 32 84 6f bf 42 c2 82 3c
       -0.36287653 0.44346496 -0.9356109 0.01596177
000230 8f 5a 83 3e d8 86 95 3e 90 d4 a5 3e 85 73 8e 3f
       0.25655028 0.2920444 0.32388735 1.1129004
000240 95 82 21 bf 8d 17 06 c0 bb 63 b5 be 7c 0d 3a 3f
       -0.6308988 -2.0951874 -0.3542765 0.72676826
000250 ba b8 13 3e 9f 0d fc bd 62 56 f3 be 18 38 8e 3e
       0.14425936 -0.123072855 -0.47526842 0.2777717
000260 74 02 56 be af 57 1e be ef 78 9c bd 0f 02 d4 3f
       -0.20899373 -0.15463136 -0.07640254 1.6563128
000270 2d 3e 04 bf 38 2e f3 be b3 0e 9c be 37 af 12 3d
       -0.5165737 -0.474962 -0.30479965 0.03581163
000280 cc 92 cc bd 3f 6c 51 bf db 86 1c bf 48 65 c1 3e
       -0.09988937 -0.81805795 -0.61143273 0.37772584
000290 d6 84 d2 3e ea 3e 77 ba 46 2a 6b be 36 74 3f be
       0.4111697 -0.0009431677 -0.22965345 -0.18696675
0002a0 ae a7 ba 3e 1a 0b 35 3f 19 9c 4b bf f5 e8 bb bf
       0.36456054 0.70720065 -0.7953506 -1.4680468
0002b0 55 e0 f0 3f 12 c2 ed be 37 b3 8e 3e 5b c8 d3 bd
       1.8818461 -0.46437126 0.27871105 -0.10340949
0002c0 3e 29 8a be db b9 ad be b2 8e 7b bc 07 07 90 be
       -0.2698459 -0.3393086 -0.015353845 -0.2813036
0002d0 ed 94 61 be 6d 18 26 be d1 bf a5 be 04 69 82 3e
       -0.22029467 -0.16220255 -0.32372907 0.25470746
0002e0 f3 10 7e be f5 a0 4f 3f d1 bb 00 bf dd a9 cd 3e
       -0.24811153 0.81104976 -0.50286585 0.40168658
0002f0 b3 58 06 be a1 3c c8 bd 45 de df be ba 98 23 c0
       -0.13119774 -0.09777189 -0.43724266 -2.5561967
000300 9b 80 79 3f 1c 70 ad bf 48 aa c2 3c 47 2b 1e be
       0.9746186 -1.3549838 0.023762837 -0.15446196
000310 dc bc 11 3e 6c 7a 74 3f 45 fe 0b 3e 64 d5 c3 bd
       0.142322 0.954993 0.13671215 -0.095621854
000320 67 20 45 3d 6d f1 de bd 64 71 76 bf a3 8b a5 3d
       0.048126604 -0.10885892 -0.9626677 0.08083274
000330 b6 34 5d bf ee 68 fa 3d c9 b1 8c bd eb 1a c8 bc
       -0.86408556 0.12227045 -0.06869847 -0.024426898
000340 dd fb 13 3e fc 4e 6b 3f d7 b9 cf bd 59 21 40 3e
       0.14451547 0.91917396 -0.10142868 0.18762721
000350 51 7a 4d be d9 84 d4 bf c8 c4 47 c1 51 59 53 3e
       -0.20066191 -1.6603042 -12.485542 0.2063954
000360 10 8b c7 3e ea e5 09 3f c0 95 67 3f 80 74 f3 3d
       0.38973284 0.53866446 0.90462875 0.11887455
000370 26 3c 3a 3e bd bc f6 3d 4b 52 58 3e 25 8b 41 be
       0.18187007 0.12047718 0.21125142 -0.18900736
000380 c7 b9 02 3f bc 56 31 3f 04 bd 22 be c8 65 01 c0
       0.51064724 0.6927297 -0.15892416 -2.0218372
000390 b3 3d 16 3f 8e a3 1a be 51 31 b1 be 78 ff 37 3e
       0.58687896 -0.15101454 -0.34607938 0.17968547
0003a0 8c 47 f9 3e 3b bc ab 3d 9b c4 11 bd df 1f 4e 3e
       0.48687398 0.083855115 -0.03558789 0.20129345
0003b0 6e 30 61 3f b5 2c bb 3d 79 ea c5 3e 1f 6e 42 be
       0.8796452 0.091393866 0.3865545 -0.1898732
0003c0 4b fa a7 bf 83 23 5e 3e 9c 0b 42 be f0 4e 8f be
       -1.3123258 0.21693234 -0.18949741 -0.27989912
0003d0 60 73 87 be 88 c6 aa 3e e4 91 36 3d 8a da 0c 3f
       -0.26455212 0.33354592 0.044572726 0.55020964
0003e0 85 2b 25 3f df a8 3a 3f 08 3f c8 bf f3 67 31 be
       0.6451953 0.72913927 -1.5644236 -0.1732481
0003f0 a1 4f b5 3e 60 d8 dd 3e 42 40 5e bc d3 39 ae 3e
       0.35412315 0.43329144 -0.013565125 0.3402849

0.bias f4 [64]
000000 29 43 c7 be dd 4f 08 bf 79 bf 59 be 64 4a 9f be
       -0.38918427 -0.5324686 -0.21264447 -0.31111443
000010 c9 e5 24 3d 7e 96 8d 3d 4d 8d be 3e 4d 63 17 3e
       0.040258203 0.0691347 0.3721718 0.14783974
000020 74 f4 64 bc 75 a8 b6 be c2 f4 0a bd 7f 1c 07 be
       -0.013974298 -0.35675398 -0.033924825 -0.13194464
000030 d1 f3 89 be ed d5 a3 be dc b6 9f be 77 a0 80 3d
       -0.2694383 -0.3199915 -0.31194198 0.06280606
000040 57 82 21 3e 0f 58 13 3c 9d cf ff 3d 3a 43 a1 be
       0.15772377 0.008993163 0.12490771 -0.31496602
000050 f5 5f b9 be c1 22 de bd e9 c3 f2 3d 1b 0f 10 be
       -0.36206022 -0.108464725 0.11853773 -0.14068262
000060 41 92 e5 be e6 84 a8 3c cf ac f4 bc 22 91 f4 be
       -0.44838145 0.020571183 -0.029867558 -0.47766978
000070 e3 f1 d6 3d a1 ff 40 3e a4 dd 15 3e a4 6b 3a be
       0.10495355 0.18847515 0.1463533 -0.18205124
000080 02 77 0d be 8a d4 ec bd 63 78 fb be 97 13 28 be
       -0.13814929 -0.11563976 -0.49115285 -0.16413723
000090 f1 01 bb 3b 32 34 7f be 37 d3 53 be 35 7c 96 be
       0.0057070185 -0.24922255 -0.20686041 -0.29391637
0000a0 98 af 29 3d 16 74 ce be 58 db 8c bc 48 a4 a1 bd
       0.041427225 -0.40322942 -0.017194435 -0.07892662
0000b0 b0 b1 81 be 4e eb 0e 3e a9 70 94 3d 55 e8 6f 3e
       -0.25330877 0.13956949 0.07248051 0.23428471
0000c0 08 54 13 bf 63 52 a6 bc 05 2c 94 be 63 4d ff be
       -0.57550097 -0.020302957 -0.28939834 -0.4986373
0000d0 c2 b0 9a be 7b 2e 8b be 42 e8 8b bb d9 89 c7 bd
       -0.3021298 -0.271839 -0.0042696306 -0.09743089
0000e0 c5 27 ee 3c a8 e6 aa be d6 fb c8 be d2 01 81 be
       0.029071698 -0.33379102 -0.39254636 -0.251967
0000f0 13 79 84 3d eb 6f 1b bd c7 17 89 3d 76 2d 38 3e
       0.064684056 -0.03794853 0.06693988 0.17986092

2.weight f4 [128, 64]
000000 b6 0d c7 3e 96 85 d2 3e e7 8b 73 3e 2e c8 1a bf
       0.38877648 0.41117543 0.23783837 -0.604617
000010 6b 32 28 bf 96 0c 8d be 8a 20 b5 c0 d2 46 9f 3e
       -0.6570193 -0.27548665 -5.660222 0.3110872
000020 69 bb 14 bf 83 39 bc bf ac 11 e2 be 4e 87 0a c0
       -0.58098465 -1.4705051 -0.44154108 -2.1645083
000030 18 7a 56 3d 15 27 47 bf 2b 7f dc be 2f eb fc 3c
       0.05236253 -0.7779401 -0.4306577 0.030873863
000040 a5 be de bc 8c e6 10 3e 37 62 e7 3e 15 21 83 3d
       -0.027190516 0.14150447 0.4519212 0.06402794
000050 18 df 6c be 2e 85 46 be 63 7b 97 3e 0e 54 c8 3d
       -0.23131979 -0.19386742 0.29586324 0.09781657
000060 7d 92 82 bf 81 10 8e 3f 57 80 9d 3e d2 07 20 bf
       -1.0200955 1.1098787 0.30761978 -0.6251193
000070 63 4e 6f bf ba 66 a9 be 73 0f 8c be be ee 48 3e
       -0.93478984 -0.33086187 -0.27355537 0.19622323
000080 c0 cd 95 bf f4 8a 58 bf 49 a8 7f bd 66 9c df 3d
       -1.1703415 -0.84587026 -0.06241635 0.109185025
000090 97 29 a1 3e 5d ce a0 be 22 b4 35 bf ef 6d d8 3e
       0.31477043 -0.31407443 -0.70977986 0.42271373
0000a0 95 35 2d c0 57 0e 19 3e 57 7d 0a c0 b3 d9 96 3e
       -2.7063954 0.14946876 -2.1639001 0.29462966
0000b0 91 a9 07 bf 27 13 06 bf 2a 1d 79 be b9 14 5c be
       -0.5299311 -0.52372974 -0.24327531 -0.2149228
0000c0 b1 44 9b be 56 e2 72 bd ed 52 83 bf 9a a2 87 3e
       -0.30325845 -0.059297882 -1.0259682 0.26491243
0000d0 ff 5e 8c 3f d4 15 2c bf 7f b3 ef 3d a9 72 0b bf
       1.096649 -0.6722081 0.11704158 -0.5447183
0000e0 9b 07 d9 be b3 a4 42 bf 92 e6 c7 3e 6c d4 41 3e
       -0.42388615 -0.7603256 0.390431 0.18928689
0000f0 6e 0c 35 3e 28 01 17 3e e2 4a 23 c0 b0 fa 1a 3e
       0.17680523 0.14746535 -2.5514455 0.15134692
000100 af 7a 26 bf 6b b6 95 3f dd 40 84 3f e4 84 72 be
       -0.6503095 1.1696295 1.0332295 -0.23683506
000110 8e fa 11 ba 55 19 65 3f fa 59 bd bf 69 26 44 c0
       -0.00055686466 0.8949178 -1.4793084 -3.0648444
000120 f4 25 9a bf 9d 37 e0 3e 78 51 39 be 5f 5d 67 3e
       -1.2042832 0.4379243 -0.18097484 0.22594212
000130 32 78 dc 3e f1 8a d2 bd d3 50 b4 3e 8d 69 58 bf
       0.43060452 -0.10280407 0.35217914 -0.8453606
000140 59 35 1e 3f ce 00 fc 3f 11 13 b0 be 91 ad 94 bf
       0.6180015 1.9687746 -0.34389547 -1.1615468
000150 b3 ab 1b 3e ec e1 e9 bd 22 72 4e ba ec 7d 94 3e
       0.15202217 -0.11420044 -0.00078752835 0.2900232
000160 56 3e 0c 3f 0b 39 9b be cf e3 00 be 13 6f 35 3f
       0.5478262 -0.30316958 -0.12586902 0.7087261
000170 9c ea b6 bf d4 82 9f bf 9d 31 e7 bd 01 59 1b bf
       -1.4290347 -1.24618 -0.1128876 -0.60682684
000180 1c 5a 53 bd 5b 34 af 3f f7 14 26 bf e2 6d 90 3e
       -0.051599607 1.3687853 -0.6487574 0.28208834
000190 80 9a 8e be 9a 61 0a 3e 7f a3 1f bd 58 18 12 bf
       -0.2785225 0.13513795 -0.03897428 -0.57068396
0001a0 6c db a3 3e 6b 9e 54 3e 51 e6 ae be f5 e2 29 3f
       0.32003343 0.20763557 -0.34160092 0.66361934
0001b0 54 20 24 bf b6 fb 8c bf e0 32 b4 be 90 33 fe bf
       -0.6411183 -1.1014316 -0.35195065 -1.9859486
0001c0 66 9b 5f 3e d4 88 b6 3d 40 fb e9 3e 53 52 b7 be
       0.21836624 0.08912817 0.456995 -0.35804996
0001d0 af c7 25 bf b9 ed 3b 3f 79 40 1a 3c 9b c4 13 be
       -0.6475782 0.7340961 0.009414786 -0.14430468
0001e0 14 51 4f be db a7 cb be 55 d9 83 3f a4 df d6 3d
       -0.20245773 -0.397765 1.03007 0.10491875
0001f0 13 a2 9d 3e 59 60 0c 3f b8 63 1b 3f cb 27 bd 3f
       0.30787715 0.54834515 0.60699034 1.4777769
000200 72 55 76 3f 49 b1 c0 be 44 03 69 bf 99 b6 15 3e
       0.9622413 -0.37635258 -0.9102061 0.14620437
000210 f5 40 81 bc c9 99 f4 be 23 12 d3 3e 05 a8 75 be
       -0.015778044 -0.4777358 0.41224775 -0.23989876
000220 8e 82 77 bf 78 87 2c bf f0 74 94 bd f0 3c 62 bf
       -0.96683586 -0.6739421 -0.072488666 -0.88374233
000230 0a 69 81 3e 4c 07 d8 bf b4 82 d2 3c 18 84 24 bf
       0.2527545 -1.6877227 0.02569709 -0.6426406
000240 ca 33 78 bf ee bd 18 3f db 88 9b bd 2d 2f e5 be
       -0.96954024 0.5966481 -0.075944625 -0.44762555
000250 6e 21 fa 3e 55 c4 56 bd 31 ce b8 bd 50 0b b9 3f
       0.4885363 -0.05243333 -0.09023703 1.4456577
000260 bb 81 9d bf 2b 40 42 bf c8 04 29 3f c9 4f 7e bf
       -1.2305216 -0.7587916 0.6602292 -0.9934049
000270 a3 a0 0b bf d5 bd af bf c5 73 5b 3f 06 56 38 bf
       -0.5454199 -1.3729807 0.85723525 -0.7200626
000280 4b 05 4c 3f 5c 28 9f 3f 77 fb c9 3d 20 ce bc 3c
       0.79695576 1.2434192 0.09862416 0.023047507
000290 7b 6e 58 bd a6 8f 8c be 66 19 51 c0 9c 65 9b be
       -0.052839737 -0.27453345 -3.2671752 -0.3035096
0002a0 ef 6f 8f be 07 cc 69 be 83 0e 03 be e0 dd 98 bf
       -0.28015086 -0.22831737 -0.12798505 -1.1942711
0002b0 19 0b 63 bf 6a 40 5f bf 85 2e 81 be 86 a5 b6 be
       -0.8868881 -0.87207663 -0.25230804 -0.3567316
0002c0 39 0e 11 c0 d9 50 dd bf 6c 24 43 3d 5a 36 24 3f
       -2.266493 -1.7290298 0.047642156 0.64145434
0002d0 7b 15 9b bf e9 df 3c bf a0 ed 98 bf 36 34 1f c0
       -1.211593 -0.7377916 -1.1947517 -2.4875617
0002e0 f5 aa 28 3f dc 34 01 3c 10 98 b1 c0 f1 9c ea 3d
       0.6588586 0.007886138 -5.5498123 0.114557154
0002f0 da 19 2f be 08 7a 06 3e 9b cd d6 3e 05 7d 69 c0
       -0.17099705 0.13132489 0.4195374 -3.6482556
000300 30 58 9a bc 6d cb 1b 3f bc d3 de 3d 2c ae 3e bf
       -0.01884088 0.6085728 0.10880229 -0.74484515
000310 48 e4 1b 3f 9c 30 d9 bd 0a 5c b9 bd ea 11 22 3f
       0.60895205 -0.10604975 -0.09050758 0.63308585
000320 bf 69 ee be f5 a8 be bf bb 51 d2 bd ca fc 33 be
       -0.46565053 -1.4895312 -0.10269495 -0.175769
000330 55 2b 53 bf a7 97 a8 be 0e 31 f6 be a7 f5 80 3f
       -0.82487994 -0.32928202 -0.480843 1.0074967
000340 d0 18 39 bf 96 33 49 bf 94 31 b2 be 4e 37 b1 be
       -0.72303486 -0.7859434 -0.3480345 -0.34612507
000350 4a 70 dc bd f3 2b 0d 3f de dc 3b bf 43 b2 f0 bf
       -0.10763605 0.55145186 -0.7338389 -1.8804401
000360 07 e5 35 bf 92 7d 0e be be 33 ef bc 84 8c 33 3f
       -0.71052593 -0.13915089 -0.029199477 0.70136285
000370 25 a7 7c bf d3 3d e7 bf 94 a8 a0 bf a2 6d 1a 3e
       -0.9869254 -1.8065742 -1.2551446 0.15080884
000380 b2 e4 1f bd a8 62 aa 3e e8 0b 2c 3e f6 06 79 bf
       -0.03903646 0.33278394 0.16801417 -0.97276247
000390 e4 c5 52 3e e6 22 de 3e 45 cb 87 bf 40 44 4b be
       0.20583302 0.43386 -1.0608908 -0.19850254
0003a0 05 ae 39 bf cd f4 5f 3e ff 75 a1 bf 4c b7 db bc
       -0.7253116 0.21870728 -1.2614135 -0.026820801
0003b0 74 30 02 c0 1b 12 aa be fc fb 6a 3d c5 91 5b bf
       -2.0342073 -0.33216938 0.057369217 -0.857693
0003c0 8f 25 94 3d a2 e4 c9 be 7e 93 9b 3e d7 b1 be 3c
       0.07233726 -0.39432245 0.30385965 0.02327816
0003d0 5b ff 4f bf 55 5a 05 bf 00 94 05 c0 10 68 5f bf
       -0.81249017 -0.5209096 -2.0871582 -0.8726816
0003e0 f4 d4 ac be 5b 5f 73 3e db d9 f4 bf 91 96 30 be
       -0.3375622 0.23766844 -1.9128984 -0.17244937
0003f0 5b 4d b6 3e 98 ca d6 bf 9e b8 08 c0 a8 23 49 bf
       0.35605893 -1.6780577 -2.1362681 -0.7857003

2.bias f4 [128]
000000 0e 39 fb bd d1 5d 0b bf 39 2f c5 3b 60 1b 27 3e
       -0.12266742 -0.5444003 0.0060175923 0.16319036
000010 ce a1 18 bf ae 80 a6 bf 5e 3d f1 bd 34 49 1f bf
       -0.59621894 -1.300802 -0.11779283 -0.62221074
000020 d8 f6 23 be 96 89 90 3e 85 1a 21 bf 27 ed 3c be
       -0.16012132 0.2822997 -0.6293109 -0.18449841
000030 a9 b7 e8 3f ca 5d 35 bf eb e8 bf bd a3 7a 32 3f
       1.8181049 -0.70846236 -0.093705975 0.6971838
000040 26 69 12 3f ed 6a c4 be ed 67 73 3f 68 b4 53 3e
       0.57191694 -0.38362828 0.95080453 0.20674288
000050 a7 cf 86 bf 84 82 08 3f 5d ef 3c be b1 79 bc be
       -1.053212 0.5332415 -0.18450685 -0.36811593
000060 b9 5a 18 3f dc 95 2a bf f1 b0 5f bf 52 18 7b 3f
       0.5951343 -0.6663492 -0.87379366 0.98083985
000070 0f 26 0e 3f 77 e3 76 3f ea ca 85 be ac ba 92 be
       0.5552682 0.96440834 -0.26131374 -0.28658044
000080 c7 c2 b4 be cf 53 17 3d f6 4f 06 3f c5 70 8d 3e
       -0.35304853 0.03694516 0.5246576 0.276251
000090 77 7f 4b c0 5e 42 bc 3d e9 e0 1b 3e ca 96 bd bf
       -3.1796548 0.09192346 0.15222515 -1.4811642
0000a0 6a 3b 09 3f 89 97 6e 3e f5 62 7f be b8 fa 95 be
       0.53606284 0.23299994 -0.24940093 -0.29292846
0000b0 03 13 5d bf 2f dc 83 bf 02 72 c2 be 09 9c 77 be
       -0.86357135 -1.030157 -0.37977606 -0.24180616
0000c0 b5 2b 5d be 39 fe 0c be 26 65 2e 3f da 0c ff be
       -0.21598704 -0.13768853 0.6812309 -0.49814492
0000d0 8f fc 84 3e 46 e0 11 bf 9f 80 99 be be 62 e2 be
       0.25973937 -0.5698284 -0.29980943 -0.4421596
0000e0 2e 03 29 3e 91 76 20 3f 8c 9e 6f bd 99 5b de be
       0.16505119 0.6268092 -0.05850081 -0.43429258
0000f0 12 d2 9f bf ea f6 4d 3e 61 06 41 be 8f 5a 40 40
       -1.2485983 0.20113721 -0.1885009 3.0055273
000100 a6 c8 36 3f 67 39 c1 bf f3 35 88 bc b5 d2 3b be
       0.71399915 -1.5095643 -0.016627287 -0.18342097
000110 f3 1c 80 3e 8c 97 b9 3c 6f b0 38 3d 60 fd dd be
       0.25022087 0.022655271 0.045090135 -0.43357372
000120 8e 1e ca be 02 00 1c c0 13 16 f5 3e 23 97 9b bf
       -0.39476436 -2.4375005 0.47868404 -1.2155498
000130 98 fc 8c 3e ca 17 27 bf d9 db dc 3c ba 51 af bd
       0.27536464 -0.65270674 0.0269603 -0.0856051
000140 ec 13 eb bd fb d0 19 3f 70 17 6d bf ec 98 cf be
       -0.11478409 0.60084504 -0.9261389 -0.40546358
000150 13 e8 37 bf db de 9f 3f 03 a7 e8 bf 9e ff 89 3e
       -0.7183849 1.2489885 -1.8175968 0.26952833
000160 fb 2a 16 40 99 1d 61 3e 08 af 31 bf 86 09 21 3e
       2.3463733 0.21983947 -0.694077 0.15726289
000170 15 f3 9e 3e 50 c0 f2 3e ed 5b 5a be 80 49 f5 3e
       0.31044832 0.47412348 -0.2132413 0.4790764
000180 3f 23 4f 3d f8 3d 1b 3f 5a 68 a6 be 33 eb 9a be
       0.050570723 0.6064143 -0.3250149 -0.30257568
000190 9b 08 7c bf 0a d3 be 3f 63 aa 3e bf 20 2f 48 bf
       -0.9845063 1.4908154 -0.7447874 -0.7819691
0001a0 d7 b5 fc bd be 0a 3f 3e f9 90 8d 3e 4b fa de 3f
       -0.12339371 0.18656442 0.27649668 1.7420133
0001b0 a6 0b 2e 3d 65 09 1e 3e 05 36 00 bf 8d 75 e8 be
       0.042491578 0.15433271 -0.5008243 -0.45402184
0001c0 5a 68 cc 3f e5 10 1d 3d 8b b3 93 3f 3d 94 42 be
       1.5969346 0.03834619 1.1539167 -0.19001861
0001d0 5e ce 6c bd c8 28 8c bf 9f 4a 50 bd 37 54 05 3f
       -0.057813995 -1.0949945 -0.050852414 0.52081627
0001e0 1a 02 70 be b8 87 0d 40 0f d5 9f 3d 6c ad 93 bd
       -0.23438302 2.2114086 0.078043096 -0.07210812
0001f0 80 55 c4 be b2 f4 d0 3e 2f 75 83 3f 36 31 0e bf
       -0.3834648 0.40811688 1.0270137 -0.5554384

4.weight f4 [6, 128]
000000 69 19 03 3e 3c ff d2 bb 9d 16 21 3d 2a 8b 73 bc
       0.12802662 -0.0064391177 0.039328206 -0.014864722
000010 4e 77 7e 3e 6a cb 4b 3d 86 c4 f2 be 3d 11 15 3f
       0.24850199 0.049754538 -0.4741556 0.5822943
000020 16 9b 0c bf 41 16 bf 3e 33 53 4c be 51 9b 24 be
       -0.5492414 0.37321666 -0.19953613 -0.16074874
000030 40 a0 54 be 46 96 f5 bc b9 1e 68 be 54 03 2a 3e
       -0.20764256 -0.029978883 -0.2266797 0.16602832
000040 34 29 e1 be bb e8 c6 3e 50 d8 8b be ee 43 40 3e
       -0.43976748 0.38849434 -0.2731347 0.18775913
000050 a8 48 71 3c 59 92 08 3f b9 a7 4f 3e d2 86 97 3e
       0.014726795 0.5334831 0.20278825 0.29595047
000060 50 e1 9a be 1d 00 bd be 61 fc 53 3e cf 35 38 be
       -0.30250025 -0.3691415 0.20701744 -0.17989276
000070 85 95 5b bd 35 65 d8 3c d0 ef ad 3e 46 46 13 be
       -0.05360939 0.026415447 0.33972025 -0.14382276
000080 c0 bd 06 3f d9 28 93 be 82 71 1a be 17 97 25 3f
       0.52633286 -0.28742102 -0.15082362 0.6468367
000090 62 d6 d7 be b7 b4 ee 3d 7e 6d 05 bf 2b dc 1c 3e
       -0.4215575 0.11655562 -0.52120197 0.15318362
0000a0 f6 d4 a8 bd 4b 4d 05 bf 75 da b0 be 78 00 04 bb
       -0.08243744 -0.52071065 -0.3454167 -0.002014188
0000b0 48 49 31 3e 19 80 71 be d1 a2 2d 3f ce 3b d3 3c
       0.17313111 -0.23584022 0.67826563 0.025785353
0000c0 b3 93 1b be e6 52 34 3f b5 bf 03 bf a8 d0 79 be
       -0.15193062 0.7043899 -0.51464397 -0.24396002
0000d0 d2 81 83 3c de 45 ce 3e 5b 48 f2 bd d8 89 dc 3e
       0.016053114 0.4028768 -0.11830207 0.43073916
0000e0 c6 ed aa be 39 4c 80 3d 08 0f d5 3d ee 7a 44 bf
       -0.33384532 0.06264538 0.104032576 -0.76750076
0000f0 78 81 74 3e e4 74 cc be 39 dc 86 3d f6 31 73 be
       0.23877513 -0.3993293 0.06584973 -0.23749527
000100 b4 cd 6c be 92 e8 7f 3e 07 a4 79 3e 6c d8 50 bf
       -0.23125345 0.24991062 0.24378978 -0.81580234
000110 52 a0 f5 3e 43 4e 07 3e f8 91 52 bf 18 3f 82 3e
       0.47973877 0.13213448 -0.8225398 0.25438762
000120 de 01 2b bf 5b c1 03 be 6c 63 0b bf 78 59 bd 3d
       -0.66799724 -0.12866728 -0.5444858 0.092455804
000130 35 65 de be 34 de 63 3f 2c 86 3c bf 79 dc b3 3e
       -0.4343659 0.8901093 -0.7364223 0.35129145
000140 e3 23 17 3d fd d9 14 3e 3f b6 e2 3d 22 1b dd 3e
       0.03689946 0.14536281 0.11069917 0.43184763
000150 bd ef da 3d 82 f7 8d 3c 46 f2 16 be 29 98 0d be
       0.10690258 0.017329935 -0.14740857 -0.13827576
000160 ba b6 d2 3d a2 cb a2 3c 11 49 c0 3e 10 ff 28 bf
       0.102887586 0.01987249 0.37555745 -0.66014194
000170 62 d3 0f 3d b4 aa 93 3d a8 19 05 3f 7c bb cd 3b
       0.0351137 0.072102934 0.51992273 0.0062784534
000180 d3 e1 07 3f a0 43 e7 3d e3 1c 75 3e 41 0d fd 3e
       0.53078955 0.11292195 0.239368 0.49424174
000190 98 be 2d bf fc 47 74 be 4c 1e b9 3d 07 ec 3a 3f
       -0.6786895 -0.23855585 0.09038982 0.730164
0001a0 ae 69 16 3e 16 e2 08 bf 18 0e 08 bf a2 6b 5c be
       0.14688751 -0.5346998 -0.53146505 -0.21525434
0001b0 38 e7 4b bc 21 b9 7a 3e ee ef 89 bf 8b 44 4b 3e
       -0.012445264 0.24484684 -1.0776346 0.19850366
0001c0 dd 2a 19 3e 2c 2e 08 3d f5 24 9e be 58 0c c7 3e
       0.14957757 0.033247158 -0.3088757 0.38876605
0001d0 79 18 ae 3d 94 aa d1 bc a1 20 db 3c 39 d7 0c bb
       0.085007615 -0.025594033 0.026748957 -0.0021490587
0001e0 78 22 6f 3e 93 bf 56 3e 46 37 bc bd d0 0d 57 3d
       0.23352993 0.20971517 -0.0919023 0.052503407
0001f0 d6 28 64 bf dd 3f 77 be c8 16 30 bf d7 7e 03 bd
       -0.8912481 -0.24145456 -0.6878476 -0.032103386
000200 ba d3 f1 3e 13 f2 6f 3e 1c 70 bd be 79 65 5e 3e
       0.47231847 0.23432188 -0.36999595 0.21718396
000210 f4 a4 2f be e9 ad 80 bd a0 99 0d 3e 4b 4c de 3e
       -0.17152768 -0.06283171 0.13828135 0.43417582
000220 97 b0 23 bf 64 84 85 3e cf 08 ae 3e 5b 5e 36 be
       -0.6394133 0.2607757 0.33991095 -0.17809431
000230 67 86 35 be e6 f0 89 3e 0a 54 53 be ab a3 a5 3e
       -0.17727052 0.26941603 -0.20637527 0.3235143
000240 47 44 f3 3d e3 3c e3 3e fc d4 7c 3e ad d8 09 3e
       0.11878257 0.4438239 0.24690622 0.13461562
000250 fe 53 32 3e 47 a5 ee 3e b2 13 93 3e 3c ff a6 be
       0.17414853 0.46610472 0.28725964 -0.32616603
000260 11 00 90 3e c6 30 af 3e 68 11 ad 3e f1 f3 2b be
       0.2812505 0.342169 0.33802342 -0.16792275
000270 f5 88 97 3e c7 46 8f 3e 76 0e 29 3f ad 42 ff be
       0.29596677 0.27983686 0.6603769 -0.49855557
000280 af 4b 98 be 53 67 d3 be ce 61 b8 be ce 09 0a 3f
       -0.29745242 -0.41289768 -0.3601212 0.5392121
000290 ce 4a 9c be 56 03 28 3e 8e 7f ff be 0b 47 02 3e
       -0.3052582 0.16407523 -0.49902004 0.12722413
0002a0 58 ad fb 3d f7 1e 64 3e 46 61 70 bf 10 8f b5 be
       0.12288922 0.22277437 -0.9389843 -0.3546071
0002b0 7c 09 27 bd fe b2 1f be 4f 38 f9 3d b0 fb 0b 3d
       -0.04078053 -0.15595624 0.12168943 0.034175575
0002c0 ba 93 75 be c1 66 0c bc 11 b4 0d 3f e6 fe 8b be
       -0.23982134 -0.00856942 0.55352885 -0.2734291
0002d0 b7 7d ac 3d 71 79 01 3f 0b 5b 99 be d2 41 91 3e
       0.08422416 0.5057593 -0.29952273 0.2837053
0002e0 12 ea 57 3d 4f 4e f1 3a 97 21 fa 3d cc 64 f2 be
       0.05271346 0.0018410179 0.12213438 -0.47342527
0002f0 a2 d5 da 3e 1c dd a7 be d9 ea ae be db ec 90 be
       0.42741114 -0.3278588 -0.3416355 -0.28305706
000300 6d e5 6c be 56 bf 25 3e a0 47 c8 3e 49 62 a4 3e
       -0.23134394 0.1618627 0.39117146 0.32106236
000310 d9 5a a6 3e 2e 5b e6 bd aa 29 7c bc e1 02 8d bd
       0.32491186 -0.1124786 -0.015390793 -0.06885315
000320 f3 2e 7d 3e 5d c9 2e 3e 4b 4b 43 be 51 58 3a 3e
       0.24724941 0.17069001 -0.1907169 0.18197753
000330 02 8d aa be 46 86 41 3f b7 f5 45 bf 3d 08 2b 3f
       -0.33310705 0.7559551 -0.77328056 0.66809446
000340 26 16 89 3e 1e f6 3a 3e 5c 77 94 3e 0b 65 ab be
       0.2677471 0.18257949 0.28997314 -0.33475527
000350 bd 1f 6f be a3 45 96 3d f3 d1 cd bd 63 69 dc be
       -0.23351951 0.07337501 -0.1004981 -0.43049154
000360 74 fa 35 3d 2f 14 38 be c1 80 be 3e 20 25 8a be
       0.044428304 -0.1797645 0.37207606 -0.2698145
000370 a0 91 d7 be b6 63 86 bd 13 de d7 3e a3 b0 e6 be
       -0.4210329 -0.06561987 0.42161617 -0.45056638
000380 b8 91 00 be dd 56 7a be c2 7d 6b be ec bd 02 bf
       -0.12555587 -0.24447198 -0.22997192 -0.5107105
000390 dc d3 33 bf 49 f9 8a be 1a 7d ba be c1 81 01 bf
       -0.70245147 -0.27143314 -0.3642357 -0.50588614
0003a0 b8 3f 90 3e 42 75 3a 3e 50 2e 9f be a4 8d 2c be
       0.28173614 0.18208793 -0.3109002 -0.16850907
0003b0 3e fb 8a bd 8f ca 20 3e 7d 58 54 bf 25 eb 1d 3e
       -0.06786202 0.1570227 -0.8294752 0.15421732
0003c0 85 13 0f 3e a5 3f 8e 3e 66 3e c1 be 20 57 29 3f
       0.1397229 0.27782932 -0.3774292 0.6614857
0003d0 46 a2 ce bc 44 f3 3e bf 4f 77 22 bf 53 71 91 be
       -0.025223862 -0.74589944 -0.634633 -0.28406772
0003e0 79 c0 ca bd e4 86 13 3e 8f 94 ac 3e 07 93 2f 3e
       -0.098999925 0.14406925 0.3370709 0.1714593
0003f0 d3 b2 85 bf 19 65 c1 3b 35 4f 25 bd a6 52 47 3f
       -1.0445198 0.0059019444 -0.04035874 0.77860487

4.bias f4 [6]
000000 d0 09 ae 3e dc 22 41 3f a9 e3 74 3f 6c b7 33 3f
       0.3399186 0.75443816 0.9565988 0.70201755
000010 66 46 eb 3e 50 10 87 3f
       0.45952147 1.0551853
